…
  (fc_classifier): Linear(in_features=512, out_features=37, bias=True)
)
================================================================================

================================================================================
===================== CNN Backbone Summary (torchsummary) ======================
================================================================================
----------------------------------------------------------------
        Layer (type)               Output Shape         Param #
================================================================
            Conv2d-1           [-1, 32, 96, 96]             288
       BatchNorm2d-2           [-1, 32, 96, 96]              64
              ReLU-3           [-1, 32, 96, 96]               0
         MaxPool2d-4           [-1, 32, 48, 48]               0
            Conv2d-5           [-1, 64, 48, 48]          18,432
       BatchNorm2d-6           [-1, 64, 48, 48]             128
              ReLU-7           [-1, 64, 48, 48]               0
         MaxPool2d-8           [-1, 64, 24, 24]               0
            Conv2d-9           [-1, 96, 24, 24]          55,296
      BatchNorm2d-10           [-1, 96, 24, 24]             192
             ReLU-11           [-1, 96, 24, 24]               0
        MaxPool2d-12           [-1, 96, 12, 12]               0
           Conv2d-13          [-1, 128, 12, 12]         110,592
      BatchNorm2d-14          [-1, 128, 12, 12]             256
             ReLU-15          [-1, 128, 12, 12]               0
        MaxPool2d-16            [-1, 128, 6, 6]               0
          Flatten-17                 [-1, 4608]               0
           Linear-18                  [-1, 512]       2,359,808
             ReLU-19                  [-1, 512]               0
          Dropout-20                  [-1, 512]               0
================================================================
Total params: 2,545,056
Trainable params: 2,545,056
Non-trainable params: 0
----------------------------------------------------------------
Input size (MB): 0.04
Forward/backward pass size (MB): 12.84
Params size (MB): 9.71
Estimated Total Size (MB): 22.59
----------------------------------------------------------------

================================================================================
…
